{
    "modelTopology": {
        "keras_version": "2.2.2",
        "backend": "tensorflow",
        "model_config": {
            "class_name": "Model",
            "config": {
                "name": "model_1",
                "layers": [{
                    "name": "input_1",
                    "class_name": "InputLayer",
                    "config": {
                        "batch_input_shape": [null, null, 48],
                        "dtype": "float32",
                        "sparse": false,
                        "name": "input_1"
                    },
                    "inbound_nodes": []
                }, {
                    "name": "input_2",
                    "class_name": "InputLayer",
                    "config": {
                        "batch_input_shape": [null, null, 101],
                        "dtype": "float32",
                        "sparse": false,
                        "name": "input_2"
                    },
                    "inbound_nodes": []
                }, {
                    "name": "lstm_1",
                    "class_name": "LSTM",
                    "config": {
                        "name": "lstm_1",
                        "trainable": true,
                        "return_sequences": false,
                        "return_state": true,
                        "go_backwards": false,
                        "stateful": false,
                        "unroll": false,
                        "units": 256,
                        "activation": "tanh",
                        "recurrent_activation": "hard_sigmoid",
                        "use_bias": true,
                        "kernel_initializer": {
                            "class_name": "VarianceScaling",
                            "config": {
                                "scale": 1.0,
                                "mode": "fan_avg",
                                "distribution": "uniform",
                                "seed": null
                            }
                        },
                        "recurrent_initializer": {
                            "class_name": "VarianceScaling",
                            "config": {
                                "scale": 1.0,
                                "mode": "fan_avg",
                                "distribution": "uniform",
                                "seed": null
                            }
                        },
                        "bias_initializer": {
                            "class_name": "Zeros",
                            "config": {}
                        },
                        "unit_forget_bias": true,
                        "kernel_regularizer": null,
                        "recurrent_regularizer": null,
                        "bias_regularizer": null,
                        "activity_regularizer": null,
                        "kernel_constraint": null,
                        "recurrent_constraint": null,
                        "bias_constraint": null,
                        "dropout": 0.0,
                        "recurrent_dropout": 0.0,
                        "implementation": 1
                    },
                    "inbound_nodes": [
                        [
                            ["input_1", 0, 0, {}]
                        ]
                    ]
                }, {
                    "name": "lstm_2",
                    "class_name": "LSTM",
                    "config": {
                        "name": "lstm_2",
                        "trainable": true,
                        "return_sequences": true,
                        "return_state": true,
                        "go_backwards": false,
                        "stateful": false,
                        "unroll": false,
                        "units": 256,
                        "activation": "tanh",
                        "recurrent_activation": "hard_sigmoid",
                        "use_bias": true,
                        "kernel_initializer": {
                            "class_name": "VarianceScaling",
                            "config": {
                                "scale": 1.0,
                                "mode": "fan_avg",
                                "distribution": "uniform",
                                "seed": null
                            }
                        },
                        "recurrent_initializer": {
                            "class_name": "VarianceScaling",
                            "config": {
                                "scale": 1.0,
                                "mode": "fan_avg",
                                "distribution": "uniform",
                                "seed": null
                            }
                        },
                        "bias_initializer": {
                            "class_name": "Zeros",
                            "config": {}
                        },
                        "unit_forget_bias": true,
                        "kernel_regularizer": null,
                        "recurrent_regularizer": null,
                        "bias_regularizer": null,
                        "activity_regularizer": null,
                        "kernel_constraint": null,
                        "recurrent_constraint": null,
                        "bias_constraint": null,
                        "dropout": 0.0,
                        "recurrent_dropout": 0.0,
                        "implementation": 1
                    },
                    "inbound_nodes": [
                        [
                            ["input_2", 0, 0, {}],
                            ["lstm_1", 0, 1, {}],
                            ["lstm_1", 0, 2, {}]
                        ]
                    ]
                }, {
                    "name": "dense_1",
                    "class_name": "Dense",
                    "config": {
                        "name": "dense_1",
                        "trainable": true,
                        "units": 101,
                        "activation": "softmax",
                        "use_bias": true,
                        "kernel_initializer": {
                            "class_name": "VarianceScaling",
                            "config": {
                                "scale": 1.0,
                                "mode": "fan_avg",
                                "distribution": "uniform",
                                "seed": null
                            }
                        },
                        "bias_initializer": {
                            "class_name": "Zeros",
                            "config": {}
                        },
                        "kernel_regularizer": null,
                        "bias_regularizer": null,
                        "activity_regularizer": null,
                        "kernel_constraint": null,
                        "bias_constraint": null
                    },
                    "inbound_nodes": [
                        [
                            ["lstm_2", 0, 0, {}]
                        ]
                    ]
                }],
                "input_layers": [
                    ["input_1", 0, 0],
                    ["input_2", 0, 0]
                ],
                "output_layers": [
                    ["dense_1", 0, 0]
                ]
            }
        },
        "training_config": {
            "optimizer_config": {
                "class_name": "RMSprop",
                "config": {
                    "lr": 0.0010000000474974513,
                    "rho": 0.8999999761581421,
                    "decay": 0.0,
                    "epsilon": 1e-07
                }
            },
            "loss": "categorical_crossentropy",
            "metrics": [],
            "sample_weight_mode": null,
            "loss_weights": null
        }
    },
    "weightsManifest": [{
        "paths": ["group1-shard1of1.txt"],
        "weights": [{
            "name": "dense_1/kernel",
            "shape": [256, 101],
            "dtype": "float32"
        }, {
            "name": "dense_1/bias",
            "shape": [101],
            "dtype": "float32"
        }, {
            "name": "lstm_1/kernel",
            "shape": [48, 1024],
            "dtype": "float32"
        }, {
            "name": "lstm_1/recurrent_kernel",
            "shape": [256, 1024],
            "dtype": "float32"
        }, {
            "name": "lstm_1/bias",
            "shape": [1024],
            "dtype": "float32"
        }, {
            "name": "lstm_2/kernel",
            "shape": [101, 1024],
            "dtype": "float32"
        }, {
            "name": "lstm_2/recurrent_kernel",
            "shape": [256, 1024],
            "dtype": "float32"
        }, {
            "name": "lstm_2/bias",
            "shape": [1024],
            "dtype": "float32"
        }]
    }]
}